model.pkl (torch, 180487 bytes, 10 tensors)

c1.weight f4 [6, 1, 5, 5]
-0.049187265 -0.014217938 -0.20466483 -0.37596393 -0.507643 -0.013723789 0.09163079 -0.16231252
-0.41385296 -0.3319068 -0.055380415 0.041403007 0.12786485 0.18635644 -0.30226642 0.12737466
0.34645954 0.57150906 0.6522701 0.17264788 -0.15950571 -0.0507209 0.06560601 0.22445804
0.331256 -0.11925776 0.0070746914 0.094826095 -0.08487596 0.105093576 -0.29989922 0.114992306
0.013697289 0.15691198 0.2674412 0.0047480473 0.08385129 0.051200073 0.1347305 -0.022584092
0.19587708 0.3979657 0.08680808 0.036322806 0.16037571 0.16111554 -0.1000114 -0.02804215
-0.24402799 -0.022589145 -0.100148365 -0.015437294 0.026995545 -0.035621587 0.20547718 -0.100125305
-0.10155419 -0.008195885 0.15980552 0.20575747 -0.16828312 0.12450452 0.2520241 0.61356556
0.30375242 0.025171347 -0.045837916 0.022740832 0.1717162 0.2783061 -0.2624447 -0.12549512
-0.46667838 0.039069008 0.22285256 0.23013091 0.3545958 -0.19813627 -0.0006011255 -0.24614593
0.075121835 0.22751321 0.08406377 -0.14310183 -0.18045455 -0.09483722 0.15995656 0.085825756
0.007857217 0.22896932 0.05751598 0.09580974 -0.074686944 0.26533985 0.015491125 0.020924304
-0.12883668 -0.0052649723 -0.28013805 -0.18692571 -0.040763482 -0.0873154 -0.28141183 -0.28207392
-0.15546939 -0.16186582 -0.15781105 -0.33797234 -0.086849995 -0.024183877 -0.041930173 -0.15337056
0.006910665 -0.13169545 0.34512606 -0.1788524 -0.3328421 -0.11724347 0.310634 0.22372867
-0.32372203 0.02678495 -0.06941474 0.25614366 0.35001138 -0.13163596 -0.04057651 0.17688064
0.080989204 0.069367275 -0.0506945 0.1678394 0.2953291 0.009876262 -0.25531098 -0.055860143
0.45009765 0.14421107 -0.18148334 -0.30172485 0.10096932 0.41472948 -0.13321304 -0.38525712
-0.124752134 0.21152927 0.09525691 -0.08825462 -0.17375912 -0.30466878
00000000: 9678 49bd 5bf2 68bc a893 51be 587e c0be
00000010: e4f4 01bf bed9 60bc eca8 bb3d 4135 26be
00000020: 89e4 d3be b0ef a9be 93d6 62bd 3396 293d
00000030: 01ef 023e 39d4 3e3e aac2 9abe 816e 023e
00000040: 2563 b13e 6b4e 123f 2cfb 263f 9bca 303e
00000050: 7755 23be b8c0 4fbd 725c 863d 54d8 653e
00000060: 639a a93e 6a3d f4bd d0d2 e73b 2f34 c23d
00000070: 73d3 adbd 4d3b d73d 648c 99be 1681 eb3d
00000080: 986a 603c 89ad 203e 0eee 883e 8295 9b3b
00000090: 3aba ab3d 2bb7 513d cbf6 093e 4602 b9bc
000000a0: 0094 483e 29c2 cb3e 6fc8 b13d 39c7 143d
000000b0: 8839 243e 79fb 243e c7d2 ccbd a7b8 e5bc
000000c0: 79e2 79be df0c b9bc 961a cdbd b4ec 7cbc
000000d0: c325 dd3c f1e7 11bd 9c68 523e 7f0e cdbd
000000e0: a5fb cfbd 0948 06bc 0fa4 233e 16b2 523e
000000f0: 6952 2cbe 3afc fe3d 4e09 813e a212 1d3f
00000100: 7085 9b3e 2434 ce3c 8ac0 3bbd fb4a ba3c
00000110: 5fd6 2f3e 237e 8e3e 275f 86be cb81 00be
00000120: 78f0 eebe d306 203d 7633 643e 70a7 6b3e
00000130: 958d b53e 3ce4 4abe d994 1dba ae0d 7cbe
00000140: 7ad9 993d 39f9 683e a029 ac3d 4989 12be
00000150: 14c9 38be 043a c2bd a7cb 233e 6ac5 af3d
00000160: 8fbb 003c ef76 6a3e e095 6b3d e637 c43d
00000170: 78f5 98bd a0da 873e 7dce 7d3c 7269 ab3c
00000180: c3ed 03be ca85 acbb 416e 8fbe 7469 3fbe
00000190: 9cf7 26bd 6bd2 b2bd 3615 90be fe6b 90be
000001a0: 5e33 1fbe 27c0 25be 3899 21be b60a adbe
000001b0: 69de b1bd 441d c6bc f9be 2bbd 2c0d 1dbe
000001c0: dc72 e23b 2cdb 06be 5db4 b03e 1525 37be
000001d0: 486a aabe 581d f0bd 6b0b 9f3e 2119 653e
000001e0: e5be a5be 1d6c db3c 5129 8ebd 4325 833e
000001f0: b134 b33e 94cb 06be 8e33 26bd 3320 353e
00000200: abdd a53d 6e10 8e3d 09a5 4fbd 17de 2b3e
00000210: 6035 973e 0cd0 213c 1fb8 82be 9bcd 64bd
00000220: 3373 e63e 11ac 133e c5d6 39be ae7b 9abe
00000230: 01c9 ce3d 6c57 d43e 0069 08be 6c40 c5be
00000240: 0c7e ffbd 219b 583e 0e16 c33d d7be b4bd
00000250: e9ed 31be 8cfd 9bbe

c1.bias f4 [6]
0.20177086 0.06376375 0.0018698048 0.04131327 -0.14503893 -0.13951774
00000000: 059d 4e3e 9296 823d 3d14 f53a 1a38 293d
00000010: 1685 14be bddd 0ebe

c3.weight f4 [16, 6, 5, 5]
-0.15541255 -0.13768546 -0.020378735 0.0912699 0.019619968 -0.14448519 -0.09891595 -0.12730695
-0.0056508933 -0.017896555 -0.11024962 -0.08926038 -0.07448451 0.06252448 0.041725837 -0.11141574
-0.106468864 -0.021197662 0.04326356 0.042909324 -0.15884477 -0.19759642 -0.11861038 -0.13484077
-0.10869158 0.0016400297 0.03977216 0.045300364 0.07159006 0.028459677 -0.10089122 0.010453157
0.12923752 0.06450636 0.07599692 0.009903437 0.14521092 0.16045564 0.004340787 0.0894142
0.010721805 0.07919344 0.11710739 0.008301982 0.04369905 -0.022350062 -0.13509573 -0.20038861
-0.09679802 -0.16163984 -0.012072965 0.07597325 -0.045616414 -0.023902988 -0.0783064 0.11606332
0.13595366 0.049404096 0.03439051 -0.032073196 0.15705642 0.11692639 0.090084635 0.11562547
-0.033276252 0.1333131 0.23650987 0.13615519 0.03943767 -0.010643932 -0.0687787 -0.053813107
-0.037009317 -0.09350336 -0.120370455 -0.04854503 -0.09842444 0.019004397 0.059295133 -0.04630892
-0.04079469 -0.084477395 0.050759826 0.10648134 0.061728183 -0.029067926 -0.07056783 -0.04602337
0.16021474 0.09948552 -0.08953819 0.060186345 0.05403175 0.123569794 0.11282833 0.01111089
0.08820566 0.046467993 -0.031598672 0.06356712 -0.0005663359 -0.045852438 0.12006572 0.15972774
0.035468657 0.056947473 -0.03603437 -0.045856465 -0.045266647 -0.08477116 0.11865091 -0.07880898
-0.21880986 -0.2236331 -0.1355862 -0.090736836 -0.045774277 -0.17349648 -0.15020394 -0.20779467
-0.13028957 -0.188111 -0.043645855 -0.07803164 -0.10010224 0.07010941 -0.14888717 0.11763272
0.05805686 0.06479852 -0.0039816718 -0.070605606 0.024701612 0.045753762 -0.0014966028 -0.035866734
0.07742079 0.022623496 -0.12871005 0.016127858 -0.047429744 -0.11317378 -0.09863143 0.005692372
0.03615212 -0.14311673 -0.13514228 -0.024282161 -0.13599871 -0.1376206 0.17953308 0.13834152
0.18060419 0.2182317 0.22334623 -0.16311055 -0.15264761 -0.083180256 -0.016414106 -0.111212164
-0.06597703 -0.15332952 -0.16645004 -0.19199713 -0.24367298 0.096364155 -0.010334496 0.14933248
0.18775052 0.101395465 -0.059983518 -0.16668224 -0.045202594 -0.018209292 -0.02781555 0.01925785
0.06394854 0.10782622 0.111876205 0.06605082 0.033932902 1.6543418e-06 -0.018250206 0.09578625
-0.024226384 -0.12297003 -0.15896764 -0.2022897 -0.19471902 -0.06800346 0.034744926 -0.06366001
-0.088579215 -0.08439483 -0.12519851 -0.076931484 -0.09253007 0.09298781 0.047155418 -0.08245678
0.11829737 0.13679256 0.055035684 0.034371577 -0.09612709 0.17704539 0.1256994 0.08387601
0.13759081 0.14164123 -0.16356046 -0.2100911 -0.18668215 -0.1912856 -0.258108 -0.025495458
-0.18146028 -0.031465642 0.023885595 -0.12306187 0.046456255 -0.033359192 0.06906345 0.1338419
-0.028058646 -0.017624846 0.08529053 0.11024739 0.10781497 -0.02709515 -0.009282582 0.0094249565
0.0073270793 0.048785657 0.08692725 -0.015972853 -0.010127622 0.0035320676 -0.061535966 -0.09136171
0.021171564 0.068464816 -0.04150404 -0.13732216 -0.042682406 -0.06825451 -0.009936439 0.044266727
-0.038545378 -0.040911026 0.033163235 0.041435443 0.031112095 -0.028950369 0.09580062 -0.065996364
00000000: 7824 1fbe 6bfd 0cbe 4ef1 a6bc b7eb ba3d
00000010: 0eba a03c edf3 13be 7294 cabd c15c 02be
00000020: 212b b9bb cc9b 92bc 8eca e1bd 25ce b6bd
00000030: 568b 98bd d60c 803d b6e8 2a3d ef2d e4bd
00000040: 590c dabd b8a6 adbc 2135 313d b0c1 2f3d
00000050: 34a8 22be b756 4abe 00ea f2bd b313 0abe
00000060: b199 debd 44f6 d63a 22e8 223d e08c 393d
00000070: cf9d 923d 4524 e93c 0ea0 cebd b843 2b3c
00000080: d756 043e e91b 843d 46a4 9b3d 0742 223c
00000090: 2cb2 143e 7c4e 243e 293d 8e3b cb1e b73d
000000a0: 82aa 2f3c 2c30 a23d 00d6 ef3d 0905 083c
000000b0: c6fd 323d 7a17 b7bc 8956 0abe ac32 4dbe
000000c0: 0a3e c6bd ea84 25be afcd 45bc dd97 9b3d
000000d0: 47d8 3abd 33d0 c3bc 1b5f a0bd 9bb2 ed3d
000000e0: 7037 0b3e f35b 4a3d 10dd 0c3d 2f5f 03bd
000000f0: 66d3 203e 1a77 ef3d 4b7e b83d 0ccd ec3d
00000100: ae4c 08bd 3b83 083e a52f 723e 446c 0b3e
00000110: 6589 213d e363 2ebc d9db 8cbd 226b 5cbd
00000120: 1597 17bd b17e bfbd c984 f6bd 27d7 46bd
00000130: c192 c9bd 1caf 9b3c 74df 723d 6cae 3dbd
00000140: 5518 27bd 7c02 adbd 89e9 4f3d e412 da3d
00000150: b1d6 7c3d dc1f eebc de85 90bd 0083 3cbd
00000160: 550f 243e 10bf cb3d cc5f b7bd f585 763d
00000170: 6550 5d3d 2912 fd3d 8a12 e73d 730a 363c
00000180: 2ba5 b43d 3955 3e3d 9c6d 01bd 7a2f 823d
00000190: 2976 14ba c4cf 3bbd 04e5 f53d ab8f 233e
000001a0: 9547 113d c141 693d c798 13bd fdd3 3bbd
000001b0: 8569 39bd 809c adbd 40ff f23d 9a66 a1bd
000001c0: b10f 60be 1300 65be 1cd7 0abe 3cd4 b9bd
000001d0: cf7d 3bbd 10a9 31be 10cf 19be 20c8 54be
000001e0: a16a 05be 2ca0 40be ffc5 32bd 0dcf 9fbd
000001f0: 6702 cdbd 8695 8f3d e175 18be 6ce9 f03d
00000200: 08cd 6d3d 16b5 843d af78 82bb ac99 90bd
00000210: 095b ca3c 4c68 3b3d a829 c4ba ffe8 12bd
00000220: cb8e 9e3d e954 b93c 91cc 03be 921e 843c
00000230: b145 42bd a8c7 e7bd 46ff c9bd 1487 ba3b
00000240: 3f14 143d 318d 12be bd62 0abe 62eb c6bc
00000250: 3f43 0bbe 6aec 0cbe 85d7 373e 66a9 0d3e
00000260: 4ef0 383e 2178 5f3e e0b4 643e 7406 27be
00000270: a84f 1cbe 695a aabd e076 86bc 34c3 e3bd
00000280: f71e 87bd 6a02 1dbe e171 2abe e59a 44be
00000290: 6985 79be 925a c53d 0552 29bc 9dea 183e
000002a0: ac41 403e 6da8 cf3d 47b1 75bd c0ae 2abe
000002b0: 5b26 39bd a72b 95bc 70dd e3bc a3c2 9d3c
000002c0: 74f7 823d fed3 dc3d 5a1f e53d a745 873d
000002d0: 3afd 0a3d c00a de35 7581 95bc 952b c43d
000002e0: 6976 c6bc b6d7 fbbd 6ac8 22be 0825 4fbe
000002f0: 6c64 47be 6645 8bbd b250 0e3d 2e60 82bd
00000300: 0569 b5bd 32d7 acbd 0a34 00be 418e 9dbd
00000310: 6880 bdbd 6570 be3d 0a26 413d 1adf a8bd
00000320: e445 f23d 5913 0c3e 196d 613d 36c9 0c3d
00000330: 48de c4bd 634b 353e 58b7 003e 2fc7 ab3d
00000340: 9be4 0c3e 660a 113e 657c 27be 1f22 57be
00000350: 9b29 3fbe 5fe0 43be bb26 84be dadb d0bc
00000360: b9d0 39be 1ee2 00bd b9ab c33c dd07 fcbd
00000370: ea48 3e3d a6a3 08bd 2371 8d3d da0d 093e
00000380: 3fdb e5bc fb61 90bc cdac ae3d 62c9 e13d
00000390: 18ce dc3d a6f6 ddbc f915 18bc 226b 1a3c
000003a0: ff17 f03b 78d3 473d ea06 b23d 80d9 82bc
000003b0: 53ee 25bc 437a 673b 230d 7cbd d91b bbbd
000003c0: fd6f ad3c 4837 8c3d 2400 2abd 2e9e 0cbe
000003d0: bfd3 2ebd 05c9 8bbd 72cc 22bc 0751 353d
000003e0: c2e1 1dbd 5292 27bd 2cd6 073d 36b8 293d
000003f0: cbde fe3c 5329 edbc 1e33 c43d 1a29 87bd

c3.bias f4 [16]
-0.009669379 0.025553094 -0.042284783 -0.048576277 0.044175416 -0.13091242 -0.06503143 0.0069279824
0.08990869 -0.059095886 0.05621746 -0.08457153 0.025235629 -0.11343533 -0.067394756 0.05980889
00000000: 516c 1ebc b954 d13c cf32 2dbd ebf7 46bd
00000010: 48f1 343d e80d 06be 332f 85bd 2104 e33b
00000020: 0c22 b83d 870e 72bd 4844 663d d733 adbd
00000030: f3ba ce3c c850 e8bd 4306 8abd 2bfa 743d

fc1.weight f4 [120, 256]
0.075518705 -0.07291349 -0.06973869 0.030901257 0.052691497 -0.062539555 -0.082915455 -0.0056924946
0.006729737 -0.06183342 0.0061692987 0.06453515 -0.029479716 -0.022038538 0.037821658 0.05078771
-0.09306384 -0.07728004 0.020604378 0.089628056 -0.0346704 -0.0045840964 -0.019724404 0.05714158
0.020153914 -0.009523205 0.069037616 0.006163056 -0.09795996 -0.060520317 0.031103598 0.037365917
0.049192697 -0.02362336 0.05905659 0.04397628 0.039178696 0.05335932 -0.03645782 -0.06532091
-0.016283752 0.03388019 0.02217319 0.046174973 0.036018677 0.015646996 0.02119494 0.0301165
-0.052355513 -0.059987195 0.11988949 0.1348702 -0.035292838 0.019954666 0.06478118 0.07889173
-0.00418171 0.027422994 -0.023870587 0.07504528 -0.028296854 0.013195288 -0.03502786 -0.051884282
-0.058416996 -0.18251234 -0.1473472 -0.097829916 -0.031464845 -0.09627083 -0.037365694 0.07656928
0.008151452 0.03687748 0.08752919 0.042867284 0.027256912 -0.052002765 -0.0027806128 -0.0063288724
0.18349081 0.028340487 0.09800185 0.01884954 0.08776217 -0.061725702 -0.0424308 0.0010778358
0.064481534 -0.0024784233 -0.03903503 0.04485786 -0.014516311 0.113531426 0.038320772 0.011146007
-0.043763258 -0.04819726 0.044517796 -0.043086 -0.05891797 -0.049771953 -0.01253874 0.05113285
0.011422676 0.028785108 0.040108595 -0.016188452 -0.0006832282 -0.021020018 -0.05180529 -0.037939157
-0.013972868 -0.0023980453 0.060540207 0.071975425 -0.03628015 -0.029373907 -0.042573955 -0.06468731
-0.0003623485 -0.038650386 -0.0018056541 0.014929797 -0.019721413 0.00021861125 0.044688262 0.050200168
0.027032986 0.04423016 0.008772018 0.12317779 0.034720313 -0.015978398 0.025681928 0.07287681
-0.034005035 -0.07403114 -0.042174697 -0.047825478 -0.031398993 -0.054029007 -0.07332207 -0.03137306
-0.061869152 -0.14288281 -0.22320698 -0.06504059 0.039600424 0.043059222 0.06633373 0.100680806
-0.05413376 -0.022106932 0.033953916 0.010863467 0.03507674 -0.0026762122 -0.05453963 -0.021392042
-0.056613527 -0.118681885 -0.061639532 -0.09595098 0.00034410824 -0.010836472 0.0011089331 0.1170436
-0.031164465 -0.04750509 0.0696637 0.08525 -0.031983636 -0.025720388 -0.004740001 0.06164342
0.13996437 -0.12037889 -0.08446509 -0.065668225 0.057805344 -0.057737395 -0.028484633 0.04190397
-0.022309776 0.106566384 -0.04676506 -0.010256455 0.036116205 0.023507014 0.040385813 -0.0072873496
0.01921748 0.12535632 0.0866313 0.058912445 0.0283298 0.0009181993 -0.022065787 0.0023669011
0.039792437 0.011485914 0.017872566 0.015332945 0.02573297 0.006901922 0.0069349534 -0.007027155
0.11990842 0.2018649 0.053100437 -0.026184715 0.023734627 0.08030089 -0.010626567 -0.07090495
0.055349834 0.071398444 -0.062771104 -0.07614516 -0.05123186 -0.032286786 -0.001988014 0.023660801
0.08356934 -0.04606083 -0.104306996 -0.06902641 0.08531448 0.056546617 0.0014283254 0.03224291
-0.0007691836 0.04706533 -0.05039086 0.04098859 -0.029307593 -0.05478914 0.04043544 -0.009147604
-0.036092676 -0.022912538 0.032617595 -0.018502502 -0.019941539 -0.08014597 0.033390567 -0.059621997
-0.07166265 0.018440163 -0.032040127 0.050895162 0.002081168 -0.022927638 0.026154257 0.0016815494
00000000: 8da9 9a3d ab53 95bd 29d3 8ebd a224 fd3c
00000010: 0ad3 573d bd14 80bd 94cf a9bd 1b88 babb
00000020: 2085 dc3b 0a45 7dbd d427 ca3b 012b 843d
00000030: 727f f1bc 2a8a b4bc e2ea 1a3d c606 503d
00000040: 4198 bebd ff44 9ebd 83ca a83c ea8e b73d
00000050: 8d02 0ebd 3036 96bb 1395 a1bc 4a0d 6a3d
00000060: d219 a53c 3807 1cbc 9863 8d3d 76f3 c93b
00000070: 3b9f c8bd 27e4 77bd f9cc fe3c 010d 193d
00000080: 487e 493d c785 c1bc 53e5 713d 7920 343d
00000090: d779 203d 4d8f 5a3d cc54 15bd f8c6 85bd
000000a0: 8165 85bc f4c5 0a3d 8da4 b53c f821 3d3d
000000b0: 5288 133d 212e 803c 03a1 ad3c e1b6 f63c
000000c0: bc72 56bd 22b5 75bd 9f88 f53d 6a1b 0a3e
000000d0: 398f 10bd f877 a33c ffab 843d fd91 a13d
000000e0: ba06 89bb 30a6 e03c 408c c3bc 57b1 993d
000000f0: cece e7bc 0d31 583c 6079 0fbd 9d84 54bd
00000100: a946 6fbd 84e4 3abe 2fe2 16be 0d5b c8bd
00000110: 48e1 00bd a429 c5bd c50c 19bd 5bd0 9c3d
00000120: ab8d 053c d70c 173d 8142 b33d 9b95 2f3d
00000130: e349 df3c da00 55bd f13a 36bb 6e62 cfbb
00000140: 04e5 3b3e 4f2a e83c 32b5 c83d 5a6a 9a3c
00000150: a7bc b33d 17d4 7cbd ebcb 2dbd 2b46 8d3a
00000160: e50e 843d 0b6d 22bb 32e3 1fbd e0bc 373d
00000170: d2d5 6dbc 2a83 e83d 3ef6 1c3d be9d 363c
00000180: 1a41 33bd 7d6a 45bd 4b58 363d f27a 30bd
00000190: f853 71bd addd 4bbd 4a6f 4dbc ae70 513d
000001a0: 2d26 3b3c bfce eb3c e948 243d a59d 84bc
000001b0: ab1a 33ba 2c32 acbc c931 54bd 1766 1bbd
000001c0: 75ee 64bc 8628 1dbb 02f9 773d da67 933d
000001d0: 7f9a 14bd 8ca1 f0bc 0762 2ebd c87a 84bd
000001e0: 98f9 bdb9 de4f 1ebd b3ab ecba 1b9c 743c
000001f0: cd8e a1bc 033b 6539 0a0b 373d b19e 4d3d
00000200: 4874 dd3c af2a 353d 83b8 0f3c a344 fc3d
00000210: e336 0e3d 21e5 82bc e862 d23c 7040 953d
00000220: dd48 0bbd a39d 97bd 60bf 2cbd a6e4 43bd
00000230: 3b9c 00bd 854d 5dbd e229 96bd 0a81 00bd
00000240: 826a 7dbd df4f 12be 5f90 64be 0034 85bd
00000250: 0e34 223d de5e 303d fbd9 873d bd31 ce3d
00000260: 5dbb 5dbd 9919 b5bc 4313 0b3d affc 313c
00000270: a1ac 0f3d 6463 2fbb f264 5fbd 5d3e afbc
00000280: 96e3 67bd 7d0f f3bd bc79 7cbd f381 c4bd
00000290: 6d69 b439 758b 31bc 9f59 913a 8eb4 ef3d
000002a0: 9f4c ffbc b294 42bd d8ab 8e3d 8d97 ae3d
000002b0: 4601 03bd 90b3 d2bc 0352 9bbb d07d 7c3d
000002c0: d252 0f3e 3589 f6bd 08fc acbd 107d 86bd
000002d0: 4cc5 6c3d 0c7e 6cbd 9b58 e9bc 7fa3 2b3d
000002e0: fec2 b6bc 7a3f da3d b88c 3fbd b10a 28bc
000002f0: 96ee 133d c891 c03c 986b 253d b8ca eebb
00000300: fa6d 9d3c 685d 003e c06b b13d 2d4e 713d
00000310: e613 e83c 50b3 703a 4fc3 b4bc 031e 1b3b
00000320: 65fd 223d 6a2f 3c3c 7d69 923c 0837 7b3c
00000330: f3cd d23c 8529 e23b 9b3e e33b 0c44 e6bb
00000340: 8c92 f53d acb5 4e3e d87f 593d 5481 d6bc
00000350: 1f6f c23c cb74 a43d 0d1b 2ebc 9d36 91bd
00000360: 82b6 623d 5939 923d 238e 80bd fef1 9bbd
00000370: 80d8 51bd 263f 04bd 5749 02bb 4cd4 c13c
00000380: 6726 ab3d 48aa 3cbd e89e d5bd b85d 8dbd
00000390: 5cb9 ae3d 6d9d 673d a636 bb3a 2411 043d
000003a0: 0aa3 49ba 93c7 403d a566 4ebd a7e3 273d
000003b0: 7a16 f0bc 946a 60bd a29f 253d d5df 15bc
000003c0: ead5 13bd 13b3 bbbc 079a 053d 8f92 97bc
000003d0: 705c a3bc 9223 a4bd 8cc4 083d 3236 74bd
000003e0: dec3 92bd d30f 973c 823c 03bd 7277 503d
000003f0: 3464 083b bed2 bbbc 7441 d63c 6f67 dc3a

fc1.bias f4 [120]
0.05930378 -0.03903102 -0.059616286 0.045941662 0.040130623 0.032441482 0.0544807 -0.0075981203
-0.0076122726 -0.01904909 0.06480203 0.027144928 0.041448437 -0.0351774 0.029765736 0.032768175
0.053054847 0.036005966 -0.020008124 -0.050110955 0.004528423 0.059737876 -0.008546463 0.041346315
-0.016000176 0.048409205 0.05017961 -0.007181834 0.033695314 -0.05635396 0.042361066 0.05793501
-0.0021682961 -0.03566024 0.03453404 0.0549246 -0.0623867 -0.0065930844 -0.029367702 -0.001345659
-0.035013087 0.019158825 -0.042700928 0.035947833 0.07017841 0.06595184 -0.045377962 -0.059684955
-0.06374298 0.017878048 -0.027805364 -0.01672441 -0.013827055 0.034134053 -0.03432948 0.03255839
0.061799426 0.004724402 0.008578937 0.051959828 -0.01589923 0.057670876 0.024087224 0.024331786
0.022986194 0.055343356 -0.055881903 -0.008541668 0.02538127 0.008788465 0.045315087 -0.027356302
-0.053949103 0.0031251714 -0.015026192 0.04403157 -0.024768418 -0.02920731 -0.026429169 -0.014442415
0.019638002 0.04786966 -0.031700805 0.043631244 -0.014351596 0.051294856 0.058199506 0.037098147
0.04576723 -0.048445202 0.022109466 -0.060891964 0.003633141 0.053575963 -0.025774239 0.058742277
0.055447474 -0.033040304 -0.036837038 -0.06663322 -0.051985323 0.04733494 -0.037592314 -0.013637745
-0.042810995 -0.012412327 -0.008946167 -0.033940203 0.018037345 -0.031802837 -0.020414086 -0.040926013
-0.049100716 -0.024937712 0.0731368 0.042044975 -0.02561195 0.066037856 -0.03848126 -0.049147334
00000000: 85e8 723d fede 1fbd 3530 74bd 532d 3c3d
00000010: 0260 243d 5ce1 043d 2827 5f3d a7f9 f8bb
00000020: 5f70 f9bb d60c 9cbc edb6 843d 0a5f de3c
00000030: d6c5 293d 2d16 10bd 46d7 f33c ec37 063d
00000040: 0a50 593d fe7a 133d 14e8 a3bc 2541 4dbd
00000050: 2a63 943b b4af 743d 7706 0cbc c15a 293d
00000060: cd12 83bc bb48 463d 2289 4d3d 9755 ebbb
00000070: 1904 0a3d 69d3 66bd cc82 2d3d 434d 6d3d
00000080: f919 0ebb 7910 12bd 9173 0d3d 9ef8 603d
00000090: 3289 7fbd cd0a d8bb 8994 f0bc d360 b0ba
000000a0: e269 0fbd f8f2 9c3c 2be7 2ebd 093e 133d
000000b0: b3b9 8f3d c211 873d 3ede 39bd 3678 74bd
000000c0: ae8b 82bd fc74 923c 13c8 e3bc a101 89bc
000000d0: df8a 62bc 26d0 0b3d 129d 0cbd f25b 053d
000000e0: 6521 7d3d 28cf 9a3b ab8e 0c3c d4d3 543d
000000f0: 1a3f 82bc 4c38 6c3d 9252 c53c 7453 c73c
00000100: 8b4d bc3c b7af 623d 6ce4 64bd 5af2 0bbc
00000110: 62ec cf3c 7efd 0f3c 509c 393d 531a e0bc
00000120: bcf9 5cbd adcf 4c3b 6b30 76bc 735a 343d
00000130: 23e7 cabc 2b44 efbc fc81 d8bc e19f 6cbc
00000140: e0df a03c fa12 443d b4d8 01bd adb6 323d
00000150: f522 6bbc 8e1a 523d 9b62 6e3d 3af4 173d
00000160: 6b76 3b3d 7a6e 46bd e91e b53c da69 79bd
00000170: fe19 6e3b 7872 5b3d 7f24 d3bc be9b 703d
00000180: e41c 633d 4555 07bd 6fe2 16bd ff76 88bd
00000190: 90ee 54bd 48e2 413d 66fa 19bd d970 5fbc
000001a0: 955a 2fbd 135d 4bbc f292 12bc e204 0bbd
000001b0: 0ec3 933c b143 02bd 713b a7bc 09a2 27bd
000001c0: d51d 49bd 2c4a ccbc bfc8 953d 5a37 2c3d
000001d0: 27d0 d1bc db3e 873d 879e 1dbd b74e 49bd

fc2.weight f4 [84, 120]
-0.07311759 0.018574415 0.0058549168 -0.04725763 -0.08341784 0.054577995 -0.012992176 -0.039165754
-0.124055184 -0.025660388 0.1013495 0.11227388 0.025163168 0.054787006 0.038575806 -0.0029615231
0.07879284 0.103583016 -0.042202048 -0.007842999 -0.03869364 -0.009293685 0.047022402 -0.010468967
0.066044904 -0.05282893 0.08963613 0.042697843 0.07511872 0.08275686 -0.09507022 0.00503303
-0.023133568 -0.012836905 -0.016236631 -0.100284636 0.035991777 0.08727109 0.0010218197 -0.07420677
-0.08916841 0.07617569 0.07615828 -0.028808283 -0.07325957 0.0129977 -0.0713749 -0.0033113817
-0.08204075 0.09674668 -0.04316497 0.10352111 -0.024270585 0.034123167 0.0021338286 0.10299013
0.030581867 0.0645113 0.022413515 0.006335562 -0.054709144 0.004940641 0.05852966 0.05048485
0.06322289 0.013863092 0.019141167 0.017234871 -0.004903737 -0.00197143 0.05450003 -0.074493036
-0.009193873 -0.016463526 0.010469564 -0.059145007 0.020887053 -0.0014734523 0.05797578 -0.02389427
-0.075345024 -0.07195934 0.078362904 0.07662166 -0.014671444 0.085251994 -0.058248915 0.08838799
0.0740079 -0.07434103 -0.04426279 -0.06190775 -0.07848448 0.06545469 -0.0010252648 -0.10156369
-0.06046582 0.07411666 -0.08494408 -0.026065122 -0.06088951 -0.029924406 0.009750658 0.047376674
0.051584177 -0.08549139 0.007324315 0.02019926 0.08853795 -0.05282265 -0.06811395 0.01251032
-0.0065581547 -0.054907862 -0.0974722 -0.02512418 0.04190955 0.09446237 0.031767394 -0.032022927
0.022338077 -0.017872777 -0.013835077 0.06499537 -0.087166555 0.010673893 0.0027874273 0.07227854
0.10055153 -0.05922803 0.13603552 0.09198173 0.089350626 0.044118226 0.031295814 -0.023380974
0.013735118 0.025802825 0.09984202 -0.013390635 0.026395066 0.06629933 -0.011686272 -0.059688903
-0.054183975 -0.11923461 -0.07560954 -0.019608464 0.030320732 -0.07833927 0.039670676 -0.007010169
0.07347025 0.06939509 -0.0045133284 -0.122414045 -0.051255688 -0.020294426 -0.047929574 0.011805231
0.040234327 -0.04085654 -0.009666908 0.11748141 0.011421522 -0.030810826 0.077584915 0.059619218
-0.05196896 -0.13268863 0.017009944 -0.05006866 -0.17556845 -0.056286443 0.074673444 0.021225201
0.033892557 0.05000301 -0.01866482 -0.014430466 -0.05514599 0.06847332 0.0224148 0.005283587
-0.002001887 -0.010831034 0.09549196 0.070197284 -0.07149836 -0.007186244 -0.07827081 -0.09071134
0.04574899 -0.08099183 0.05036239 -0.034478445 0.025862994 -0.08385196 0.03656729 -0.04996997
-0.058725815 -0.051218495 0.0664755 -0.029564021 0.0076593724 0.049675692 -0.07737552 -0.05322989
-0.06896633 0.097903565 0.00633445 -0.028847158 0.045998704 0.04183709 -0.09992712 -0.11708233
-0.040831655 -0.10065207 0.082859315 -0.039648227 -0.082665555 -0.14157294 0.03077287 -0.070375934
0.001277471 -0.106399104 -0.09100361 0.027708804 0.0034514747 -9.0805785e-05 -0.0061701266 -0.09497432
0.08791537 0.026120737 0.010064244 0.12003605 -0.16439581 0.041291945 0.015697377 -0.1030456
-0.04429163 -0.099787876 0.0127542075 0.002465269 -0.08448486 0.10877967 -0.017868973 0.08629039
0.032943036 -0.034638558 0.00677064 0.06963918 -0.001345715 -0.048485078 -0.007470963 0.0978804
00000000: adbe 95bd 5f29 983c 9ada bf3b 3791 41bd
00000010: f9d6 aabd 2d8d 5f3d 23dd 54bc 456c 20bd
00000020: a510 febd bc35 d2bc 5490 cf3d d9ef e53d
00000030: fd22 ce3c 5768 603d aa01 1e3d 1d16 42bb
00000040: 245e a13d 5523 d43d 0edc 2cbd ec7f 00bc
00000050: 397d 1ebd 8a44 18bc 909a 403d 0886 2bbc
00000060: 8d42 873d 2663 58bd 2693 b73d efe3 2e3d
00000070: d8d7 993d 6e7c a93d 2db4 c2bd 1eec a43b
00000080: 9c82 bdbc e251 52bc af02 85bc 0862 cdbd
00000090: 1d6c 133d 2fbb b23d 94ee 853a b8f9 97bd
000000a0: ed9d b6bd 0002 9c3d dff8 9b3d 59ff ebbc
000000b0: 1d09 96bd 4ef4 543c 012d 92bd c403 59bb
000000c0: fb04 a8bd 2023 c63d c0cd 30bd e002 d43d
000000d0: 1bd3 c6bc bcc4 0b3d b4d7 0b3b 7dec d23d
000000e0: d386 fa3c 801e 843d 8c9c b73c 8c9a cf3b
000000f0: b216 60bd 1ae5 a13b ccbc 6f3d 34c9 4e3d
00000100: 017b 813d 0622 633c f0cd 9c3c 2530 8d3c
00000110: 87af a0bb 1b33 01bb 6c3b 5f3d ce8f 98bd
00000120: e6a1 16bc 84de 86bc 8988 2b3c 0942 72bd
00000130: 531b ab3c db20 c1ba 0378 6d3d ebbd c3bc
00000140: 7e4e 9abd 6b5f 93bd bb7c a03d d1eb 9c3d
00000150: 7f60 70bc 9998 ae3d 6a96 6ebd c304 b53d
00000160: 7491 973d 1c40 98bd e64c 35bd fb92 7dbd
00000170: 79bc a0bd 1c0d 863d 2e62 86ba a000 d0bd
00000180: 02ab 77bd 7aca 973d 29f7 adbd 8686 d5bc
00000190: 4767 79bd 0724 f5bc 39c1 1f3c 0b0e 423d
000001a0: ee49 533d 1c16 afbd cf00 f03b eb78 a53c
000001b0: 6253 b53d 905c 58bd 547f 8bbd 16f8 4c3c
000001c0: cae5 d6bb 11e7 60bd 819f c7bd 39d1 cdbc
000001d0: 59a9 2b3d 7d75 c13d 871e 023d 792a 03bd
000001e0: 58fe b63c ee69 92bc 85ac 62bc 4b1c 853d
000001f0: 6184 b2bd 8de1 2e3c 45ad 363b c506 943d
00000200: f6ed cd3d 1799 72bd e54c 0b3e eb60 bc3d
00000210: 76fd b63d 50b5 343d 0a30 003d 7589 bfbc
00000220: 4309 613c 7260 d33c f979 cc3d 6564 5bbc
00000230: 773a d83c f1c7 873d c777 3fbc 5a7c 74bd
00000240: 04f0 5dbd 4631 f4bd 2dd9 9abd eea1 a0bc
00000250: 2f63 f83c 5770 a0bd b87d 223d 8fb5 e5bb
00000260: 9277 963d 031f 8e3d 8be4 93bb 37b4 fabd
00000270: 7cf1 51bd 7f40 a6bc cd51 44bd ba6a 413c
00000280: c0cc 243d 3059 27bd f361 1ebc 189a f03d
00000290: 5621 3b3c fc66 fcbc d7e4 9e3d 4833 743d
000002a0: 67dd 54bd 87df 07be 7058 8b3c cc14 4dbd
000002b0: 37c8 33be 9d8c 66bd 64ee 983d 79e0 ad3c
000002c0: ecd2 0a3d f5cf 4c3d f7e6 98bc c36d 6cbc
000002d0: c3e0 61bd bd3b 8c3d 3e9f b73c f121 ad3b
000002e0: 1732 03bb a674 31bc 4a91 c33d 98c3 8f3d
000002f0: bb6d 92bd 957a ebbb 724c a0bd dec6 b9bd
00000300: 4b63 3b3d 0bdf a5bd cb48 4e3d 4539 0dbd
00000310: a1de d33c 94ba abbd 95c7 153d 50ad 4cbd
00000320: 7b8a 70bd 7cca 51bd 4f24 883d 3f30 f2bc
00000330: 79fb fa3b bd78 4b3d 0e77 9ebd 9607 5abd
00000340: 383e 8dbd aa81 c83d 3891 cf3b e050 ecbc
00000350: 2369 3c3d 5e5d 2b3d 97a6 ccbd dcc8 efbd
00000360: 183f 27bd ac22 cebd 25b2 a93d 2e66 22bd
00000370: 8f4c a9bd 7ff8 10be 6317 fc3c 4221 90bd
00000380: d070 a73a c6e7 d9bd 1a60 babd 93fd e23c
00000390: 2332 623b fc6e beb8 c62e cabb e581 c2bd
000003a0: f90c b43d 28fb d53c 80e4 243c 76d5 f53d
000003b0: 6057 28be be21 293d c997 803c 9209 d3bd
000003c0: 246b 35bd 965d ccbd 06f7 503c 5a90 213b
000003d0: 6606 adbd e0c7 de3d f461 92bc 04b9 b03d
000003e0: 47ef 063d 29e1 0dbd 3fdc dd3b fd9e 8e3d
000003f0: b462 b0ba 4a98 46bd fbce f4bb 8575 c83d

fc2.bias f4 [84]
0.05522838 0.09373382 0.073358044 0.0493967 0.029178627 -0.0049570543 0.068254806 -0.06548146
0.0406007 0.03420835 -0.052025013 -0.08625835 0.03732195 0.06842544 0.06526567 -0.052535772
0.038253937 0.03560141 -0.06475193 0.03168414 -0.058348827 -0.008223422 0.024827613 0.1048382
0.077005155 -0.022433678 0.02852195 -0.0155089265 0.037068535 -0.019333055 -0.051979583 -0.049525127
0.07862172 0.055752818 -0.027444791 -0.0657622 0.051438294 -0.095933124 -0.023445271 0.07695975
0.08487107 -0.022187429 0.027300237 0.0028082374 0.09801007 -0.026507078 0.022911722 -0.058830056
-0.08942021 -0.015647518 0.042182587 -0.042400252 0.009835367 0.030665586 -0.0045931228 0.03813864
0.06780987 -0.0158524 0.041710388 -0.032724746 -0.024498766 0.09538994 0.1307802 0.007269935
0.0013931862 -0.06506992 -0.051799487 -0.042366818 -0.06546242 -0.009316246 0.019521426 -0.017371675
-0.031383656 0.041709386 -0.08149399 0.000549965 -0.07127871 -0.077970505 -0.0338573 0.034733035
0.048083004 0.09389319 -0.061713725 0.06055207
00000000: 2737 623d 84f7 bf3d be3c 963d 3254 4a3d
00000010: 0408 ef3c c96e a2bb 2dc9 8b3d 251b 86bd
00000020: eb4c 263d 0e1e 0c3d 2e18 55bd 38a8 b0bd
00000030: e7de 183d a322 8c3d 02aa 853d c02f 57bd
00000040: 29b0 1c3d c9d2 113d a99c 84bd 3bc7 013d
00000050: 2eff 6ebd 88bb 06bc 4763 cb3c 69b5 d63d
00000060: e1b4 9d3d d5c6 b7bc dda6 e93c 2719 7ebc
00000070: 2dd5 173d 5b60 9ebc 8be8 54bd dcda 4abd
00000080: 6d04 a13d 115d 643d e6d3 e0bc 55ae 86bd
00000090: f6b0 523d 9678 c4bd 4c10 c0bc 139d 9d3d
000000a0: e2d0 ad3d 69c2 b5bc bfa4 df3c 680a 383b
000000b0: 81b9 c83d 5f25 d9bc 5db1 bb3c c9f7 70bd
000000c0: f121 b7bd 392f 80bc a6c7 2c3d e3ab 2dbd
000000d0: 8524 213c 6536 fb3c e881 96bb 4337 1c3d
000000e0: e7df 8a3d e4dc 81bc 83d8 2a3d 620a 06bd
000000f0: a3b1 c8bc cd5b c33d 3feb 053e a338 ee3b
00000100: 929b b63a 6143 85bd b32b 54bd d488 2dbd
00000110: 2911 86bd 2ba3 18bc 66eb 9f3c 0b4f 8ebc
00000120: 268c 00bd 76d7 2a3d 52e6 a6bd 872b 103a
00000130: 93fa 91bd 00af 9fbd f4ad 0abd 3a44 0e3d
00000140: aff2 443d 134b c03d 88c7 7cbd 7305 783d

fc3.weight f4 [10, 84]
0.1072741 0.2061248 0.057643857 0.042723328 -0.046482924 0.20984589 0.20457901 -0.059054676
-0.15020488 0.048464514 -0.080423936 0.004895001 -0.18707371 -0.0900095 0.024222463 -0.13714899
-0.11137138 -0.17256299 -0.077227734 -0.21772905 0.006411201 -0.22635452 0.011006316 0.12785514
0.30908474 0.1358921 -0.11539943 0.09243581 -0.1365247 0.10385635 -0.16309546 0.06275809
0.070706815 -0.085459195 -0.0035514866 0.039481074 -0.054620508 -0.026966332 -0.09112313 0.14899287
0.23276073 -0.2727462 -0.0507917 0.23571181 0.15199848 0.2315792 0.048086267 -0.100411355
0.085478194 0.108467735 0.11744117 -0.106447846 -0.13939078 -0.09719323 -0.05114416 0.016444262
0.13845469 -0.16938122 0.19265184 -0.004829834 0.028434275 -0.096818686 -0.08982147 -0.076762766
0.07291255 -0.033294927 0.094324626 -0.17413038 -0.0011490074 -0.03542768 -0.027952328 -0.08976497
0.06483656 0.2521546 0.012957978 -0.25503924 0.08198883 0.0670635 -0.1858529 -0.18304849
-0.032632872 0.013104323 -0.13734898 0.016731555 -0.0069805025 0.044614185 0.07634986 -0.04317951
0.08920252 -0.13694732 -0.1490725 0.04920215 -0.0861702 -0.029261446 0.06887776 -0.18677327
-0.08655289 0.07296936 -0.0018219954 -0.12854315 -0.1505255 0.19925909 -0.22882085 -0.12175987
-0.018365793 -0.16393818 0.22484308 0.004657412 0.08798586 -0.073265 0.07422541 -0.1155501
0.1189614 -0.2491024 -0.037398987 0.034267534 0.07352822 0.13007477 -0.028734023 0.047518265
0.1942667 0.16206168 -0.008651742 -0.12583204 -0.21328394 -0.06619376 -0.037394594 -0.08332791
-0.2157616 -0.25451323 -0.015409298 0.023700409 0.11560969 -0.06999245 -0.26049206 0.21609484
0.123829946 -0.15947905 -0.19585016 0.26792654 0.061925236 0.22053126 -0.0026279886 0.083162524
-0.018712582 0.16990171 -0.14451736 -0.045884557 0.0060245222 0.15112792 -0.0141764935 -0.20619975
0.016216394 0.32014433 0.37354594 0.26084617 -0.089233555 -0.03576184 -0.0683377 -0.18086646
-0.011502184 -0.055253815 0.16657856 0.042340484 0.14403087 -0.09474573 -0.04765023 0.024489248
0.14545685 0.20713867 0.16754435 -0.13035499 -0.14073643 -0.17825462 0.18890597 0.02476887
0.1065818 -0.060451046 0.068402275 -0.068066835 -0.13491142 0.118996695 0.0941146 0.116468705
-0.18790925 -0.06327932 0.1354307 0.07572652 0.11883023 -0.18590185 -0.1433359 -0.0457705
-0.18542533 0.18201089 0.061762776 -0.00022019586 0.041031048 0.06401993 -0.09842436 -0.19307247
0.042849988 -0.036133382 -0.04487739 -0.02991027 0.020850917 -0.121076256 -0.004572325 -0.036882095
-0.29070285 -0.01993251 -0.017588489 -0.17800802 -0.0055828607 0.19248536 -0.13356559 0.06741605
-0.09003412 0.34277987 -0.08666231 0.059795894 0.28948197 0.09884971 0.006271213 -0.0671583
0.10246802 -0.062298294 0.009138915 0.057347625 -0.04144362 -0.13319677 0.1379701 0.079578735
0.11679215 0.20315973 0.14817612 0.035036184 -0.12160376 0.031549226 0.05144967 -0.021283992
0.17412575 -0.18890962 -0.0052391924 -0.14442211 0.1001775 0.14852008 -0.010350766 0.18517306
0.013432609 0.3412037 0.058143523 0.020526282 0.05739142 -0.0075399396 -0.0053264285 -0.014934349
00000000: 86b2 db3d 6112 533e f71b 6c3d a8fe 2e3d
00000010: e164 3ebd d7e1 563e 297d 513e 51e3 71bd
00000020: 4fcf 19be ba82 463d 4eb5 a4bd 3f66 a03b
00000030: 4090 3fbe e756 b8bd 306e c63c c970 0cbe
00000040: ae16 e4bd 5ab4 30be 9329 9ebd 5df4 5ebe
00000050: 0d15 d23b 7bc9 67be d653 343c 75ec 023e
00000060: 5b40 9e3e 4c27 0b3e 8956 ecbd fc4e bd3d
00000070: 22cd 0bbe a3b2 d43d 7f02 27be 5087 803d
00000080: bcce 903d 3b05 afbd 0fc0 68bb e8b6 213d
00000090: c1b9 5fbd 7fe8 dcbc c39e babd 9691 183e
000000a0: d458 6e3e 64a5 8bbe f50a 50bd 705e 713e
000000b0: 7da5 1b3e 1923 6d3e 1bf6 443d 78a4 cdbd
000000c0: 310f af3d 5524 de3d ff84 f03d 5401 dabd
000000d0: 75bc 0ebe 3f0d c7bd 8a7c 51bd 1eb6 863c
000000e0: 11c7 0d3e 4572 2dbe 8646 453e 9643 9ebb
000000f0: ffee e83c e048 c6bd 52f4 b7bd cc35 9dbd
00000100: 2d53 953d 4360 08bd 452d c13d 3c4f 32be
00000110: 4a9a 96ba 9d1c 11bd 48fc e4bc b2d6 b7bd
00000120: 08c9 843d 681a 813e b34d 543c 8194 82be
00000130: c2e9 a73d 9758 893d 3950 3ebe 1071 3bbe
00000140: 0caa 05bd 84b3 563c 36a5 0cbe 9d10 893c
00000150: b3bc e4bb 5dbd 363d 515d 9c3d ffdc 30bd
00000160: d0af b63d eb3b 0cbe 76a6 18be 3288 493d
00000170: 007a b0bd b3b5 efbc c80f 8d3d 7e41 3fbe
00000180: a442 b1bd f670 953d 05d0 eeba d1a0 03be
00000190: 5b23 1abe 930a 4c3e 0350 6abe 3d5d f9bd
000001a0: dc73 96bc 69df 27be 443d 663e 349d 983b
000001b0: ee31 b43d f60b 96bd 7e03 983d 88a5 ecbd
000001c0: 09a2 f33d b314 7fbe ae2f 19bd 1d5c 0c3d
000001d0: f795 963d 5232 053e 9d63 ebbc 83a2 423d
000001e0: daed 463e 7ff3 253e 09c0 0dbc 1dda 00be
000001f0: 1b67 5abe 9890 87bd 132b 19bd d3a7 aabd
00000200: 9cf0 5cbe 8f4f 82be 4877 7cbc 5c27 c23c
00000210: c6c4 ec3d 3458 8fbd 375f 85be f747 5d3e
00000220: 8e9a fd3d 7a4e 23be f28c 48be ab2d 893e
00000230: 51a5 7d3d f2d2 613e 553a 2cbb 1d51 aa3d
00000240: 214b 99bc b7fa 2d3e 5cfc 13be 72f1 3bbd
00000250: 5b69 c53b 47c1 1a3e 8644 68bc 0726 53be
00000260: 3ed8 843c f5e9 a33e 6a41 bf3e a18d 853e
00000270: 15c0 b6bd 027b 12bd a3f4 8bbd 0f35 39be
00000280: a873 3cbc d351 62bd 9293 2a3e 376d 2d3d
00000290: d47c 133e 0d0a c2bd e32c 43bd ad9d c83c
000002a0: a4f2 143e 291c 543e bf90 2b3e c77b 05be
000002b0: 361d 10be 6188 36be 9170 413e 16e8 ca3c
000002c0: 8f47 da3d 849b 77bd 7e16 8c3d a066 8bbd
000002d0: 3826 0abe 8ab4 f33d 28bf c03d 2587 ee3d
000002e0: 486b 40be 9798 81bd 58ae 0a3e 8116 9b3d
000002f0: 435d f33d 0e5d 3ebe a5c6 12be d979 3bbd
00000300: 23e0 3dbe 1061 3a3e f7fa 7c3d 60e4 66b9
00000310: 2c10 283d e21c 833d b692 c9bd cab4 45be
00000320: 7883 2f3d 9900 14bd 5bd1 37bd 6206 f5bc
00000330: 8bcf aa3c d4f6 f7bd 71d3 95bb ae11 17bd
00000340: 01d7 94be 8149 a3bc bc15 90bc bc47 36be
00000350: 6ef0 b6bb e21a 453e 6bc5 08be 6d11 8a3d
00000360: cf63 b8bd d880 af3e 027c b1bd 8aec 743d
00000370: fb36 943e b771 ca3d bf7e cd3b 4a8a 89bd
00000380: c1da d13d 7f2c 7fbd 63bb 153c 58e5 6a3d
00000390: c9c0 29bd bc64 08be 0948 0d3e 2dfa a23d
000003a0: b930 ef3d 1b09 503e 7bbb 173e 1a82 0f3d
000003b0: 640b f9bd c339 013d e4bc 523d c45b aebc
000003c0: 054e 323e 8671 41be 88ad abbb 64e3 13be
000003d0: dc29 cd3d a615 183e 4296 29bc 029e 3d3e
000003e0: 7214 5c3c 40b2 ae3e e727 6e3d bc26 a83c
000003f0: 4413 6b3d 9911 f7bb 5289 aebb 33af 74bc

fc3.bias f4 [10]
-0.023895698 0.085498914 -0.066536754 -0.081539504 -0.07167129 -0.05334873 -0.11597805 0.024722751
0.06609629 0.01567662
00000000: e9c0 c3bc 0e1a af3d 6c44 88bd 2ffe a6bd
00000010: 66c8 92bd 3384 5abd e685 edbd 5e87 ca3c
00000020: 7e5d 873d 416c 803c
